checkpoint/autoencoder.pth (torch, 898076 bytes, 40 tensors)

encoder.encoder.0.weight f4 [32, 3, 3, 3]
0	0xbd2e513a	-0.042557932
1	0x3e7b0819	0.24514808
2	0x3df75867	0.12077408
3	0x3dfef2ac	0.1244863
4	0xbd3abd89	-0.04559091
5	0xbde4eeff	-0.111783974
6	0xbdc73655	-0.0972716
7	0xbdb3632e	-0.087591514
8	0x3a88e6c9	0.0010444756
9	0xbe7cba32	-0.24680403
10	0x3ca89a6b	0.020581445
11	0xbe0f877f	-0.14016531
12	0xbe133a28	-0.14377654
13	0xbdcffc82	-0.10155584
14	0x3e495106	0.19659814
15	0x3d32d12b	0.04365651
16	0x3de6bc33	0.11266365
17	0x3e1f9dbc	0.15587515
18	0x3de6f1e6	0.11276607
19	0x3e8b30fd	0.27185813
20	0xbe0816ad	-0.132899
21	0x3e07a4cd	0.1324646
22	0x3dc09033	0.09402504
23	0xbdcc889c	-0.09986994
24	0x3b55c61d	0.0032619305
25	0xbdc42e57	-0.09579151
26	0xbe4fb3e0	-0.2028346
27	0xbdf0dd9a	-0.11761017
28	0x3c881747	0.016612662
29	0xbd8b2159	-0.0679347
30	0x3e76568a	0.2405645
31	0x3deb0d8a	0.11477192
32	0x3db9f492	0.09079851
33	0xbe1d7aa3	-0.15378813
34	0xbd8ef1e9	-0.069797345
35	0xbd590ac5	-0.052988786
36	0xbe00f674	-0.12594014
37	0xbe10d2a6	-0.14142856
38	0x3cc4a8ff	0.024006365
39	0x3e68589f	0.22690056
40	0x3e7427a4	0.23843247
41	0x3e0cf118	0.13763845
42	0xbd94e1db	-0.07269641
43	0xbe1a9cd3	-0.15098886
44	0xbe07e447	-0.13270675
45	0x3c9fc477	0.019502861
46	0xbe414b1f	-0.18876313
47	0xbda7ff41	-0.08202983
48	0xbb773380	-0.0037719905
49	0x3e70c79b	0.23513643
50	0x3e6ab400	0.22920227
51	0xbbb05fc6	-0.005382511
52	0xbd6ff365	-0.05858173
53	0xbe0cdaed	-0.13755389
54	0x3d2b9238	0.041887492
55	0x3e6f310d	0.23358555
56	0x3d88a159	0.066713996
57	0xbda02bea	-0.07820876
58	0xbe82b2b1	-0.25526956
59	0xbe3dc68c	-0.18532771
60	0xbc8e93a2	-0.017404381
61	0x3de38e59	0.11111135
62	0x3daf9ed7	0.08575218
63	0xbcb4e440	-0.022081494
64	0x3d6fbfcf	0.058532532
65	0x3df28228	0.118412316
66	0xbdfb1ba5	-0.12261132
67	0xbe7009fc	-0.23441309
68	0xbdf4dd7a	-0.11956306
69	0x3e1246fa	0.14284888
70	0x3e3cf919	0.18454398
71	0x3b65bade	0.0035054008
72	0x3d9195f6	0.07108681
73	0x3e0cbab5	0.13743098
74	0x3dd6087f	0.10450839
75	0xbe273064	-0.16327053
76	0xbd86dd07	-0.06585126
77	0xbda31aee	-0.07964121
78	0x3d25aa59	0.04044566
79	0xbc96ef37	-0.018424613
80	0xbd02b90e	-0.031914763
81	0x3a99b213	0.0011726044
82	0x3d38e8ad	0.045143772
83	0x3cd0cfe3	0.025489753
84	0x3ad1c65f	0.0016004554
85	0xbe08973b	-0.1333894
86	0x3d33c4b4	0.043888763
87	0xbea1649f	-0.3152208
88	0xbec598ab	-0.3859304
89	0x3e22fad5	0.15915997
90	0xbd6f3571	-0.058400575
91	0xbdd24260	-0.10266566
92	0x3e488843	0.1958323
93	0x3ddc8598	0.107676685
94	0xbe9009b2	-0.28132397
95	0xbac0d0a3	-0.0014710616
96	0xbe53ae34	-0.20671922
97	0xbcbfd9b2	-0.023419235
98	0xbc8a5dae	-0.016890373
99	0x3e29cf38	0.16582954
100	0xbe108d21	-0.14116336
101	0x3d940773	0.07227983
102	0x3ddb3110	0.10702717
103	0xbe4a67c7	-0.1976615
104	0xbcca3a66	-0.02468605
105	0xbdf66c5a	-0.12032385
106	0x3e56d268	0.20978701
107	0xbd9c49ef	-0.07631289
108	0x3e62bf09	0.22143187
109	0xbe2be6e4	-0.16787297
110	0x3d4673fb	0.04845045
111	0x3cf5d19a	0.030007172
112	0xbe4e3205	-0.20136268
113	0xbd5eb2ad	-0.054369617
114	0x3e567741	0.2094393
115	0xbe219c70	-0.15782332
116	0x3d8f898e	0.07008658
117	0x3da4c8af	0.0804609
118	0xbe3eae32	-0.18621138
119	0xbd5dca2f	-0.054147895
120	0x3e3d1b82	0.18467525
121	0xbe662289	-0.22474112
122	0x3e17b84b	0.14816396
123	0x3d72352b	0.059132736
124	0xbdf7017d	-0.12060831
125	0x3ddcff13	0.10790839
126	0xbcde09b0	-0.027104229
127	0xbd9cb0c9	-0.076509066
128	0x3e05addc	0.13054603
129	0x3dc00ac3	0.09377053
130	0xbd957efd	-0.07299612
131	0x3cb5138f	0.022104053
132	0x3c43e02d	0.011955303
133	0xbe587a09	-0.21140303
134	0x3e0680d3	0.1313508
135	0x3cd756fe	0.026286598
136	0x3d299b17	0.04140767
137	0xbd347202	-0.04405404
138	0x3dcb3671	0.09922493
139	0x3c24394a	0.010023424
140	0xbe83fd93	-0.257794
141	0x3e1c337c	0.15254015
142	0xbcb1a194	-0.021683492
143	0xbdf0f0c0	-0.117646694
144	0xbc62c61e	-0.01384118
145	0x3dcfa9f5	0.101398386
146	0x3cb965a3	0.022631472
147	0x3db6450b	0.08899888
148	0xbbe689fd	-0.0070354925
149	0xbe9cbe2f	-0.3061385
150	0x3db5ba99	0.08873481
151	0xbce21ddc	-0.027602129
152	0xbcd84739	-0.02640115
153	0x3c38348e	0.011242999
154	0xbe2a6f4a	-0.16644016
155	0x3c623579	0.013806694
156	0xbd91fe18	-0.07128543
157	0x3b485632	0.0030568955
158	0x3c3ec209	0.011642941
159	0x3e8f95c6	0.28043956
160	0x3d04d4be	0.03242945
161	0xbe22537a	-0.15852156
162	0xbdba0c0b	-0.09084328
163	0x3d07d1c9	0.03315905
164	0x3c84d04e	0.016212609
165	0xbde8e4c4	-0.113717586
166	0x3e727c68	0.2368027
167	0xbd157eb4	-0.036497787
168	0xbd0d29dd	-0.034463752
169	0x3e2fb597	0.17159115
170	0xbe39b656	-0.18135962
171	0x3c0ebb8c	0.008711707
172	0x3e222036	0.158326
173	0xbe0670f3	-0.13129024
174	0xbe26465c	-0.16237777
175	0x3dc3d4c9	0.0956207
176	0x3c8c2311	0.017106565
177	0xbca06174	-0.01957772
178	0x3e40a0dc	0.18811363
179	0xbe143d08	-0.14476407
180	0xbd6c32f4	-0.05766578
181	0x3e24e046	0.16101179
182	0xbdb6d757	-0.089277916
183	0xbddc0ad9	-0.107442565
184	0x3e487ceb	0.19578902
185	0xbe03958d	-0.12850018
186	0xbd86196c	-0.065478176
187	0x3e3469c0	0.17618465
188	0xbda56879	-0.08076567
189	0xbe06edec	-0.13176697
190	0xbde418a4	-0.11137512
191	0xbe1ca74a	-0.1529819
192	0xbe372950	-0.17886853
193	0xbe2a2194	-0.16614372
194	0x3df9caf6	0.12196915
195	0xbe186d30	-0.14885402
196	0xbe11b89b	-0.14230578
197	0xbdfb8593	-0.12281337
198	0x3d359e6d	0.04434054
199	0xbc92dc1c	-0.017927222
200	0x3e392dd8	0.18083894
201	0x3e5c4273	0.21509723
202	0x3defa5dc	0.11701557
203	0x3de45bfc	0.11150357
204	0x3e226c06	0.1586152
205	0x3c586b1b	0.01320913
206	0x3dce1dca	0.100642756
207	0x3e1ade5f	0.1512389
208	0x3c29cfe9	0.010364511
209	0xbdcf5e2c	-0.10125384
210	0xbc056f01	-0.008144141
211	0xbcb77a9b	-0.02239733
212	0xbd234bd4	-0.039867237
213	0x3deab334	0.114599615
214	0xbd404f9d	-0.046950925
215	0x3dcf8a66	0.10133819
216	0x3e3cdfd7	0.18444763
217	0x3df51170	0.119662166
218	0x3d1f2dad	0.03886192
219	0x3bed0704	0.0072335023
220	0xbdcde1a4	-0.10052803
221	0xbe67fa64	-0.2265411
222	0x3d514d73	0.051099252
223	0xbe531bb2	-0.20616034
224	0xbcf78534	-0.030214883
225	0x3e680327	0.22657453
226	0x3e1359e6	0.14389762
227	0xbdd61835	-0.10453836
228	0x3d147718	0.03624639
229	0x3d946cbc	0.07247302
230	0xbca6d409	-0.020364778
231	0xbde2ea77	-0.11079877
232	0x3bcf53af	0.0063271145
233	0xbe232f7c	-0.15936083
234	0x3e85f94c	0.2616676
235	0x3e524f0a	0.20537964
236	0xbdaa82a1	-0.08325697
237	0xbdc9347b	-0.09824463
238	0x3d25d969	0.04049054
239	0x3d425cbc	0.04745172
240	0x3d542865	0.051796336
241	0xbe5bc2ce	-0.21461031
242	0xbe21d83c	-0.15805143
243	0x3e57d41e	0.2107701
244	0xbbdc75c9	-0.0067279083
245	0x3c25983e	0.010107098
246	0x3c014b14	0.007891435
247	0xbe6e1112	-0.232487
248	0xbe0be695	-0.13662179
249	0xbb11d92e	-0.0022254693
250	0x3e253ebe	0.16137215
251	0xbceb016a	-0.028687198
252	0x3e052f06	0.1300622
253	0x3dcbaa31	0.09944571
254	0x3e84db76	0.25948685
255	0xbe756199	-0.23963012

encoder.encoder.0.bias f4 [32]
0	0x41197810	9.591812
1	0x411aec3b	9.682673
2	0x41281521	10.505158
3	0x411bf5d2	9.747515
4	0x41271624	10.442905
5	0x411e5e92	9.898088
6	0x411d464f	9.829665
7	0x4109df3c	8.617001
8	0x41279168	10.473
9	0x4121c837	10.111381
10	0x41243373	10.262561
11	0x40de4614	6.9460545
12	0x41291530	10.567673
13	0x411c6d88	9.776741
14	0x411b1b2b	9.694133
15	0x40d4ce8f	6.6502147
16	0x41217ff2	10.093737
17	0x411b1f71	9.695176
18	0x41056d19	8.339135
19	0x40dcfd17	6.9058948
20	0x4122ba0d	10.170423
21	0x4121aac1	10.104188
22	0x40eaee64	7.3416004
23	0x411d9b4e	9.850416
24	0x411e5bf8	9.897453
25	0x4126cddc	10.425259
26	0x40fee4ed	7.965445
27	0x411e88c2	9.908388
28	0x411f2c0c	9.948254
29	0x411757ef	9.458968
30	0x410fd339	8.989068
31	0x4120b626	10.04447

encoder.encoder.1.weight f4 [32]
0	0x3f17b03a	0.59253275
1	0x3faabcbb	1.3338846
2	0x3fca0ad1	1.5784551
3	0x3f76f71f	0.96470827
4	0x3f972fc9	1.1811458
5	0x3f8f4964	1.1194272
6	0x3f99015a	1.1953537
7	0x3f1defcc	0.61694026
8	0x3f7ea764	0.9947417
9	0x3f4f7dca	0.81051314
10	0x3f9b2b82	1.2122653
11	0x3f0e407a	0.55567133
12	0x3fd1527d	1.6353298
13	0x3f67ed80	0.9059677
14	0x3fa1177b	1.2585291
15	0x3f316b72	0.69304574
16	0x3f9ea054	1.2392678
17	0x3f477314	0.7790997
18	0x3f72390a	0.94618285
19	0x3f26183e	0.6488074
20	0x3f534c0d	0.8253792
21	0x3f9534ba	1.1656716
22	0x3f86b9d0	1.0525455
23	0x3f1db6c2	0.6160699
24	0x3f929e27	1.1454514
25	0x3f931993	1.149218
26	0x3f85d637	1.0455998
27	0x3f542bed	0.82879525
28	0x3f3e8533	0.74421996
29	0x3f379dd9	0.7172523
30	0x3eda50ca	0.42639762
31	0x3f3eac90	0.7448206

encoder.encoder.1.bias f4 [32]
0	0xbdf2c249	-0.11853463
1	0x3e9777fc	0.29583728
2	0xbea3dbf0	-0.32003736
3	0x3e251ee1	0.1612506
4	0xbe916c43	-0.2840291
5	0x3e881e54	0.2658564
6	0x3e89dc85	0.26926056
7	0x3d032087	0.032013442
8	0xbe9ef726	-0.31047934
9	0x3de49a6c	0.11162266
10	0x3eb22f30	0.34801626
11	0x3db09031	0.08621252
12	0x3bf179a8	0.007369239
13	0x3d963722	0.073347345
14	0x3e8dd7f0	0.2770381
15	0x3de9120f	0.113803975
16	0xbe3d4b40	-0.18485737
17	0xbe118a80	-0.1421299
18	0x3dafe717	0.08588999
19	0x3e7ad304	0.24494559
20	0x3e1b276e	0.1515176
21	0x3e98b325	0.29824176
22	0xbda8aef0	-0.08236492
23	0xbf051b9c	-0.51995254
24	0x3c90f6ed	0.017695868
25	0xbe437691	-0.19088198
26	0xbc65cf7d	-0.01402652
27	0xbe1ec3ae	-0.15504333
28	0xbccbc8eb	-0.024876079
29	0xbec84ab3	-0.3911949
30	0x3ef0eb24	0.47054398
31	0x3c7db964	0.015486095

encoder.encoder.1.running_mean f4 [32]
0	0x411a3a98	9.639305
1	0x411b6a04	9.713383
2	0x4127c47d	10.485471
3	0x4113d41a	9.239283
4	0x412689f3	10.408679
5	0x411c0b3d	9.752744
6	0x411daaa6	9.854162
7	0x4109658f	8.587295
8	0x41266f46	10.402166
9	0x4123fdf5	10.249501
10	0x4123b8ba	10.232599
11	0x40df89b6	6.9855604
12	0x412855cf	10.520949
13	0x4110b1f0	9.043442
14	0x411b7d25	9.718053
15	0x40d323a5	6.598101
16	0x41214c2e	10.081099
17	0x4123c576	10.235708
18	0x41055309	8.332772
19	0x40dee4d3	6.9654326
20	0x4124374f	10.263503
21	0x4121efe5	10.121068
22	0x40eae9ee	7.341056
23	0x4124d291	10.301408
24	0x411e5313	9.895282
25	0x41203a88	10.01429
26	0x40fe91dc	7.955305
27	0x4124312c	10.262005
28	0x4128ed6c	10.557964
29	0x411b941f	9.723662
30	0x410ebf6f	8.921737
31	0x411f0a9d	9.940091

encoder.encoder.1.running_var f4 [32]
0	0x3b6ca886	0.003611119
1	0x3c50af85	0.01273716
2	0x3c8b85a8	0.017031506
3	0x3d67920b	0.05653576
4	0x3c9998bd	0.01874959
5	0x3cb5b250	0.022179753
6	0x3c3bd2d0	0.011463836
7	0x3cb74daf	0.02237591
8	0x3d2f80ca	0.042847432
9	0x3cb17c8b	0.021665832
10	0x3d3b5898	0.045738786
11	0x3c868370	0.016420096
12	0x3cf49e50	0.029860646
13	0x3e0d8ef1	0.13824059
14	0x3cb0da3b	0.021588435
15	0x3c9951a2	0.018715683
16	0x3c7e3292	0.015514987
17	0x3d93fb99	0.07225723
18	0x3b932038	0.0044899248
19	0x3c98a84c	0.018634938
20	0x3ce3e08b	0.027817031
21	0x3c990030	0.018676847
22	0x3b754806	0.0037426963
23	0x3d635762	0.055503257
24	0x3cd1cf51	0.025611551
25	0x3d76d1a6	0.06025853
26	0x3bc154c3	0.005899997
27	0x3d4c756e	0.049916677
28	0x3dc7d189	0.097567625
29	0x3ca6b28a	0.020348806
30	0x3c64fea5	0.013976728
31	0x3cb5f131	0.022209736

encoder.encoder.3.weight f4 [64, 32, 3, 3]
0	0x3d39b205	0.04533579
1	0x3c62df54	0.013847191
2	0xba456d30	-0.0007531224
3	0x3d7f2ab9	0.062296603
4	0x3cffa4d3	0.031206524
5	0x3cb4ea16	0.022084277
6	0x3d49df9c	0.049285516
7	0xbc61a1e1	-0.013771505
8	0xbca339ff	-0.019925116
9	0xbd034831	-0.03205127
10	0xbe0b6bf8	-0.13615406
11	0xbdbab32b	-0.09116205
12	0xbe2750da	-0.16339436
13	0xbe58e725	-0.21181925
14	0xbe6cc2b0	-0.23121142
15	0xbe332f00	-0.17498398
16	0xbebc0cd7	-0.36728546
17	0xbeb31da4	-0.34983552
18	0xbd248786	-0.040168308
19	0xbe25a45a	-0.16175976
20	0xbd4c9e6e	-0.049955778
21	0xbe593fd6	-0.21215758
22	0xbe921831	-0.28534082
23	0xbe8ff816	-0.28118962
24	0xbdeb82b9	-0.11499543
25	0xbebf983e	-0.3742084
26	0xbecc2461	-0.39871505
27	0xbd35c5f9	-0.044378255
28	0xbda1b0b9	-0.07895035
29	0xbdb2985b	-0.08720466
30	0xbc024fb4	-0.007953573
31	0xbc1b0ada	-0.009463036
32	0xbbb47937	-0.005507614
33	0x3e02ddf3	0.1277998
34	0x3d959cc0	0.07305288
35	0x3cb0a612	0.021563563
36	0x3db7fc36	0.08983652
37	0xbba4f0a3	-0.005033569
38	0x3d20f6b8	0.03929779
39	0x3e0290cb	0.12750547
40	0x3e1f7e65	0.1557556
41	0x3e22fd2e	0.15916893
42	0x3dafda06	0.085865065
43	0x3dd3fb50	0.103506684
44	0x3d18016b	0.037110727
45	0xbae98336	-0.0017815593
46	0xbdb2acc4	-0.08724359
47	0xbd997908	-0.07493788
48	0x3cc7aa65	0.024373243
49	0xbb9e2bcb	-0.004826998
50	0xba08b539	-0.00052149926
51	0x3d08217c	0.03323506
52	0x3d9aae15	0.07552735
53	0x3d1b719e	0.03795015
54	0x3dbf6f93	0.09347453
55	0x3d038bda	0.032115795
56	0x3bb82ee9	0.0056208265
57	0x3e12b6d2	0.14327553
58	0x3da573fb	0.08078762
59	0x3da9b47a	0.08286376
60	0x3de10aaf	0.10988366
61	0x3d570ffb	0.052505475
62	0x3d83d64c	0.06437358
63	0x3d0849d0	0.033273518
64	0xbca43e23	-0.02004916
65	0x3ca679a6	0.020321678
66	0x3cedfd02	0.029051308
67	0xbb5a3818	-0.0033297595
68	0xbc3cfc3a	-0.011534745
69	0x3c216a5a	0.009852016
70	0xbd027c3a	-0.031856753
71	0x3bd8462d	0.0066001625
72	0x3c36dd51	0.011161164
73	0xbc8b7f5a	-0.0170285
74	0xbcaf78d3	-0.021419918
75	0x3cf1904b	0.02948775
76	0xbd474773	-0.048652124
77	0xbca028e8	-0.019550756
78	0xbd73d527	-0.05952945
79	0xbbc63700	-0.006049037
80	0xbbb18f6c	-0.0054187085
81	0x3d2bc0f2	0.041932054
82	0x3dd3625b	0.10321494
83	0x3ce057e1	0.027385654
84	0x3ce67ebf	0.02813661
85	0x3d39c95f	0.045358058
86	0x3da67fdd	0.08129857
87	0xbd6049da	-0.05475793
88	0xbdcd67f5	-0.10029594
89	0xbccecb3c	-0.025243394
90	0x3d4b95ef	0.049703535
91	0xbbb986f5	-0.00566184
92	0xbc8bd10d	-0.017067457
93	0x3daf0b22	0.08547045
94	0x3db055db	0.08610126
95	0xbd11ec11	-0.03562552
96	0xbcbd134c	-0.02308049
97	0xbd1ab272	-0.037767835
98	0x3cac6d70	0.021048278
99	0x3ceef901	0.029171469
100	0x3cdd36df	0.027003704
101	0xbb8d6f4a	-0.004316245
102	0x3c72cc38	0.014819197
103	0x3c671aa0	0.014105469
104	0xbb702d5e	-0.0036648135
105	0xbc16ae3f	-0.009196817
106	0xbd9f33b4	-0.077735335
107	0xbb422c35	-0.00296284
108	0xbbf89658	-0.0075862817
109	0x3d4a5530	0.049397647
110	0x3d7d9656	0.06191095
111	0xbd39d006	-0.045364402
112	0x3d0bbb6c	0.034114286
113	0x3d515a8a	0.051111735
114	0xbd6279ca	-0.05529193
115	0xbd21703a	-0.03941367
116	0xbd035775	-0.032065827
117	0xbd313d4f	-0.04327136
118	0xbd5b47fd	-0.05353545
119	0x3c34f1e0	0.011043996
120	0x3d3df556	0.04637655
121	0x3d6bab8f	0.057536658
122	0x3cca9e9a	0.02473383
123	0x3dc78e1c	0.09743902
124	0x3ce4d86a	0.027935226
125	0x3dbb10df	0.09134077
126	0x3e1c343c	0.15254301
127	0x3d3f1dbc	0.046659216
128	0x3da0315a	0.07821913
129	0x3da05fcf	0.07830774
130	0x3c4e89e9	0.0126061225
131	0x3d1c8a03	0.038217556
132	0x3de71720	0.112837076
133	0x3dd7eff6	0.10543816
134	0x3d83c6d5	0.064344086
135	0x3d0aa7f2	0.03385157
136	0xbc9b229d	-0.018937403
137	0xbce6b59f	-0.028162776
138	0x3c65bc2e	0.014021916
139	0xbb907f87	-0.0044097337
140	0xbd14b26c	-0.03630297
141	0x3c8a09df	0.01685041
142	0x3c8f4ad1	0.01749173
143	0xbc1fa06b	-0.0097428365
144	0xba25862b	-0.0006314243
145	0x3d0df345	0.034655828
146	0x3d6184d5	0.05505832
147	0x3d0a14f5	0.033711392
148	0x3de74bdd	0.11293767
149	0x3dac53de	0.08414434
150	0x3cc977e6	0.024593305
151	0x3ded5f66	0.115904614
152	0x3d0e4771	0.0347361
153	0x3d99eb83	0.075156234
154	0x3bb60a30	0.0055554137
155	0x3c9e5601	0.01932812
156	0xbceed461	-0.029154005
157	0xbd9b3c58	-0.07579869
158	0xbd975bf4	-0.073905855
159	0xbd2653f8	-0.040607423
160	0xbe13eb5a	-0.14445248
161	0xbdd7acae	-0.10530983
162	0xbd5b6892	-0.053566523
163	0xbd5bff8f	-0.053710517
164	0xbd23be93	-0.039976668
165	0xbdb61f4f	-0.088926904
166	0xbdef6068	-0.1168831
167	0xbe0bfdab	-0.13670985
168	0x3b8b0a86	0.004243198
169	0x3c9f103f	0.019416926
170	0xbd547154	-0.05186589
171	0xbd5001af	-0.050782856
172	0xbc8b63fe	-0.017015453
173	0xbc80b418	-0.015710875
174	0x3b25762a	0.0025247433
175	0x3d3b1743	0.04567648
176	0x3ce612c9	0.02808513
177	0xbc962f5b	-0.018333128
178	0x3d184dd7	0.03718361
179	0x3d697410	0.05699545
180	0xbd9a6f6c	-0.07540783
181	0xbd9dc2d4	-0.07703176
182	0x3cc1bdd0	0.02365008
183	0x3b877afe	0.004134535
184	0x3dc383aa	0.09546597
185	0x3d8e7a29	0.06956894
186	0xbd9464b3	-0.07245769
187	0xbe08e3ed	-0.13368197
188	0xbd9f0f76	-0.07766621
189	0xbcb70d3d	-0.02234518
190	0xbd7a4cf7	-0.061108556
191	0x3bbc0865	0.0057383054
192	0xbd0c5250	-0.034258187
193	0xbd0a1744	-0.033713594
194	0xbd8daea7	-0.06918078
195	0xbdceaf2c	-0.10092005
196	0xbe8aea58	-0.27131915
197	0xbe2619eb	-0.16220824
198	0x3dbad8bd	0.09123371
199	0x3d6906d5	0.05689128
200	0x3c9fc1ec	0.019501649
201	0x3dbc9b74	0.09209338
202	0x3e0e21f7	0.13880144
203	0x3d5c9bf7	0.053859677
204	0x3d8b3e72	0.0679902
205	0x3e159ba5	0.14610155
206	0x3d97c376	0.07410328
207	0x3d948e8d	0.07253752
208	0x3deffc2b	0.11718019
209	0x3da2f956	0.07957713
210	0xbca8815c	-0.020569496
211	0xbd1c93df	-0.03822696
212	0x3d21a270	0.039461553
213	0x3ccda217	0.025101705
214	0xbdc63433	-0.09677925
215	0xbd8e9772	-0.0696248
216	0xbd813c6b	-0.06310352
217	0xbd8d229b	-0.06891366
218	0x3cb6e56b	0.022326192
219	0xbd5d4804	-0.054023758
220	0xbd54a451	-0.051914517
221	0xbbe49c64	-0.006976651
222	0x3bba78a6	0.005690652
223	0xbc5cf10e	-0.013485206
224	0xbd57b938	-0.052666873
225	0x3cfdeab2	0.0309957
226	0xbd975f55	-0.0739123
227	0xbd37e556	-0.044896446
228	0x3d58e713	0.052954745
229	0xba9a2ca7	-0.0011762575
230	0x3d5a375a	0.053275444
231	0x3caf81e4	0.021424241
232	0xbd9b3042	-0.07577564
233	0xbc9c892f	-0.019108383
234	0xbdc1147a	-0.09427734
235	0xbdeb618b	-0.11493214
236	0xbdd37e85	-0.10326866
237	0xbe5e1fab	-0.21691768
238	0xbe8f7ff9	-0.28027323
239	0xbe622371	-0.22083832
240	0xbe3d9181	-0.18512537
241	0xbe260260	-0.16211843
242	0xbe64e593	-0.223532
243	0x3cb54ebf	0.022132276
244	0xbd04a6e1	-0.03238571
245	0xbd0753b3	-0.033038806
246	0xbd9462f2	-0.07245435
247	0x3d148afc	0.03626536
248	0x3dbd76e0	0.09251189
249	0xbe14a17f	-0.14514731
250	0xbd7c5e6b	-0.06161348
251	0x3c3611aa	0.01111261
252	0x3d047ce1	0.032345656
253	0x3d9025f0	0.07038486
254	0x3dae621d	0.085148074
255	0x3d2461c0	0.040132284

encoder.encoder.3.bias f4 [64]
0	0x411e6a2a	9.900919
1	0x4117dfc0	9.492126
2	0x4117e311	9.492936
3	0x411f03c7	9.938422
4	0x4118ceda	9.550501
5	0x4118e5bb	9.556087
6	0x4119b868	9.607521
7	0x41197923	9.592074
8	0x411c636f	9.774276
9	0x411637dc	9.388638
10	0x41201888	10.005989
11	0x4119eab5	9.6198015
12	0x410d520b	8.83253
13	0x411615d3	9.380328
14	0x411a055a	9.626307
15	0x4115a312	9.352312
16	0x411ff97f	9.998412
17	0x411dca91	9.861955
18	0x411c2638	9.759331
19	0x41188605	9.53272
20	0x411bb0e2	9.730684
21	0x411dafb4	9.855396
22	0x411cbff7	9.796866
23	0x4117d223	9.488803
24	0x411123c2	9.07123
25	0x4118ebab	9.557536
26	0x4118a6b4	9.540699
27	0x411ca177	9.78942
28	0x41190568	9.56382
29	0x41185a8c	9.522106
30	0x411d8403	9.844729
31	0x411a5872	9.646593
32	0x41182467	9.508887
33	0x4117f9bd	9.498471
34	0x4115dd58	9.366539
35	0x411bc82c	9.73637
36	0x41150446	9.313543
37	0x411bbcb1	9.733567
38	0x4114c6c7	9.29853
39	0x41152aea	9.322977
40	0x41168be7	9.409156
41	0x4115bade	9.358122
42	0x4118c8fa	9.549067
43	0x411fa6fd	9.978269
44	0x4115e51f	9.368438
45	0x41180ba5	9.502843
46	0x411d5d6c	9.835308
47	0x41189b5c	9.53793
48	0x41165786	9.396368
49	0x41183b80	9.514526
50	0x411482b9	9.281915
51	0x411910a9	9.566567
52	0x411882af	9.531905
53	0x411be193	9.742572
54	0x4118bcfc	9.546139
55	0x41151496	9.317526
56	0x4119fbb0	9.623947
57	0x411ec1ef	9.922347
58	0x411584e9	9.344949
59	0x411472fd	9.278073
60	0x411d7ffb	9.843745
61	0x411a00e3	9.6252165
62	0x411b856a	9.720072
63	0x411d82d1	9.844438

encoder.encoder.4.weight f4 [64]
0	0x3fbe4717	1.4865445
1	0x3f827456	1.0191753
2	0x3f910c66	1.1331909
3	0x3f80c7ab	1.0060934
4	0x3f8e7b4c	1.1131377
5	0x3f31a835	0.6939729
6	0x3fafe847	1.374276
7	0x3f9c223f	1.2197951
8	0x3f52f2c1	0.82401663
9	0x3f802cba	1.001365
10	0x3f5ed798	0.8704772
11	0x3f9b5f83	1.2138523
12	0x3f782ac6	0.9694027
13	0x3f554304	0.8330538
14	0x3f851bf2	1.0399153
15	0x3f7f5e52	0.99753296
16	0x3f553831	0.83288866
17	0x3f7e5573	0.99349135
18	0x3f8ba326	1.0909164
19	0x3f52d851	0.8236132
20	0x3f6b9c60	0.92035484
21	0x3f425541	0.7591134
22	0x3f89dbc4	1.0770192
23	0x3f5e939d	0.8694399
24	0x3f66a353	0.90092963
25	0x3f67d992	0.9056636
26	0x3f94e56f	1.1632518
27	0x3f8f9bb2	1.121939
28	0x3f6ae70a	0.9175879
29	0x3f7e46cc	0.9932678
30	0x3f71ef97	0.9450621
31	0x3f816b81	1.0110933
32	0x3f3d4386	0.7393116
33	0x3f898316	1.0743129
34	0x3f91fd20	1.1405373
35	0x3f3bfd96	0.73433816
36	0x3f43b45a	0.7644707
37	0x3fa80cb8	1.3128881
38	0x3f4dfb5d	0.80461675
39	0x3f7b2d1a	0.98115695
40	0x3f2ae825	0.66760474
41	0x3f79e8ef	0.97621053
42	0x3f90cff3	1.1313461
43	0x3f748abd	0.955242
44	0x3f61baed	0.8817585
45	0x3f583b67	0.8446564
46	0x3f7fbc30	0.99896526
47	0x3fa451b2	1.2837431
48	0x3f74b11c	0.9558275
49	0x3f8ed2d8	1.1158094
50	0x3f3ab42a	0.7293116
51	0x3f82cd20	1.0218849
52	0x3f7cdb32	0.98771966
53	0x3f9b160b	1.2116102
54	0x3f80f8fc	1.0075984
55	0x3f57becb	0.842755
56	0x3f4e717b	0.8064191
57	0x3f9f7469	1.24574
58	0x3f824a84	1.017899
59	0x3f76e129	0.9643732
60	0x3f58e5a5	0.8472541
61	0x3f68640f	0.9077768
62	0x3f861ca5	1.0477492
63	0x3f59e7ca	0.8511931

encoder.encoder.4.bias f4 [64]
0	0xbe74c4e8	-0.23903239
1	0xbe1a56c6	-0.15072164
2	0xbe5b470a	-0.21413818
3	0xbe252962	-0.16129068
4	0xbebdb4d8	-0.37052035
5	0x3baa1aa2	0.005191163
6	0xbeef975f	-0.46795174
7	0xbdb27b62	-0.0871494
8	0xbe057929	-0.130345
9	0x3c3f3a59	0.011671626
10	0xbe8b9ca7	-0.27267954
11	0xbebbea88	-0.3670237
12	0x3e9f79d6	0.3114764
13	0x3e15a6b1	0.14614369
14	0xbe7ebd5d	-0.24876924
15	0x3d2d033c	0.042239413
16	0xbe56547b	-0.20930664
17	0xbe014e2e	-0.1262748
18	0xbd0357cf	-0.032066163
19	0xbe87226a	-0.26393443
20	0x3da44f38	0.08022922
21	0xbdc727fb	-0.097244225
22	0xbeb682c6	-0.35646647
23	0x3bcf40f2	0.0063248808
24	0xbe7ff61e	-0.2499623
25	0xbe36469b	-0.17800371
26	0xbefeca8b	-0.49763903
27	0xbe7f116a	-0.24908987
28	0xbd486155	-0.048920948
29	0xbea3ce9c	-0.31993568
30	0xbe005d33	-0.12535553
31	0xbe1455a5	-0.14485796
32	0xbec1f470	-0.37881804
33	0xbd97f548	-0.074198306
34	0xbeb292ff	-0.34877774
35	0x3dc2d254	0.09512773
36	0xbc21f891	-0.009885923
37	0xbf268709	-0.650498
38	0xbe3a8665	-0.1821533
39	0xbe7df018	-0.2479862
40	0x3de26405	0.110542335
41	0x3df203a6	0.11817102
42	0xbde4ba5c	-0.11168358
43	0xbebb1047	-0.36535856
44	0xbe343d0c	-0.17601413
45	0xba8a1639	-0.0010535187
46	0xbe66f48b	-0.22554223
47	0xbed2c039	-0.4116228
48	0x3e418b1a	0.1890072
49	0xbe77442e	-0.24147102
50	0xbe8694e9	-0.26285484
51	0xbcdf5ba4	-0.027265377
52	0xbdbb689e	-0.091508135
53	0xbe10ab30	-0.14127803
54	0xbd7b29f2	-0.0613193
55	0xbd99446c	-0.074837536
56	0xbdf47288	-0.119359076
57	0xbeefa660	-0.46806622
58	0xbd1579a7	-0.03649297
59	0xbdb2e0f0	-0.0873431
60	0xbe5cea7e	-0.21573827
61	0xbdfb55af	-0.12272202
62	0x3de0769e	0.109601244
63	0x3e231f3e	0.15929887

encoder.encoder.4.running_mean f4 [64]
0	0x410febd6	8.995077
1	0x410c1da1	8.757234
2	0x410a4b49	8.64338
3	0x411f90c1	9.97284
4	0x41010903	8.0647
5	0x41187128	9.527626
6	0x40f4494c	7.6339474
7	0x40fabb47	7.835361
8	0x411cf660	9.81015
9	0x41156c60	9.338959
10	0x411ab0d8	9.668175
11	0x40fccfad	7.900351
12	0x40c70470	6.2192917
13	0x411f4914	9.955341
14	0x4104c249	8.297433
15	0x40d93ed9	6.788922
16	0x41198eda	9.597376
17	0x4118cc53	9.549884
18	0x4113b7de	9.232389
19	0x410dd9b4	8.86565
20	0x411d7d70	9.843124
21	0x4119b32f	9.606246
22	0x41176004	9.460941
23	0x41206d66	10.026709
24	0x4100ce18	8.050316
25	0x411318d4	9.193562
26	0x410f8413	8.969745
27	0x411ec251	9.922441
28	0x411910d0	9.566605
29	0x410b967c	8.724239
30	0x411bfed5	9.749715
31	0x4110b84a	9.044992
32	0x4126a3c0	10.414978
33	0x41093b79	8.57702
34	0x413e0518	11.876244
35	0x412146c2	10.079775
36	0x413698e5	11.412328
37	0x4104714b	8.277659
38	0x410c6b66	8.77622
39	0x40efffb7	7.499965
40	0x411c87a0	9.783112
41	0x411707cb	9.439403
42	0x410024e3	8.009006
43	0x41194290	9.578751
44	0x410a2f93	8.636615
45	0x40f1ee5b	7.560346
46	0x41182237	9.508353
47	0x40e6b46d	7.2095246
48	0x41286d81	10.526734
49	0x41088757	8.533042
50	0x4133832a	11.219522
51	0x41058f95	8.347554
52	0x411e7e50	9.905838
53	0x4109be6f	8.608993
54	0x4117e0af	9.492354
55	0x41092d8d	8.573621
56	0x4122c57c	10.173214
57	0x410d9ab3	8.850268
58	0x411cd542	9.802065
59	0x41353585	11.325566
60	0x4114719c	9.277737
61	0x4107dac6	8.4909115
62	0x41115ccd	9.085156
63	0x411d928f	9.848281

encoder.encoder.4.running_var f4 [64]
0	0x400379a8	2.0543003
1	0x4005af00	2.0888062
2	0x40165c3e	2.34938
3	0x3ef6a8a5	0.4817554
4	0x3fe74bc7	1.807
5	0x3f04ea1f	0.5191974
6	0x404ddf14	3.2167406
7	0x40308ce0	2.7585983
8	0x3ede905c	0.43469512
9	0x40465b31	3.099316
10	0x3eb3b664	0.3510009
11	0x3ffd346e	1.9781625
12	0x40e95ec5	7.2928185
13	0x3fad979b	1.3561891
14	0x3f8367da	1.0266068
15	0x3ff1232a	1.8838856
16	0x3ef70359	0.48244742
17	0x3f543a49	0.82901436
18	0x3fa5ba0f	1.2947406
19	0x3f4c0f49	0.79710823
20	0x3f4d45de	0.80184734
21	0x3ed549fe	0.41658014
22	0x3f3501c0	0.70705795
23	0x3fc759d7	1.5574292
24	0x405ab888	3.417513
25	0x3f607ae8	0.8768754
26	0x3faea6e0	1.3644676
27	0x3f90f258	1.1323957
28	0x3f8af98f	1.0857409
29	0x3fbbaffc	1.4663081
30	0x3f0a2182	0.5395738
31	0x3f901b0e	1.1258256
32	0x3f492b95	0.78582126
33	0x40079de9	2.119013
34	0x403053bb	2.7551105
35	0x3f5ffe54	0.8749745
36	0x3fd75312	1.6822226
37	0x401431d9	2.3155425
38	0x3fbffb2f	1.499853
39	0x400164e0	2.021782
40	0x3f979ffc	1.1845698
41	0x404f16de	3.2357707
42	0x3ff025a4	1.8761487
43	0x3f066d22	0.52510273
44	0x3fb0dd51	1.381754
45	0x3ff1eaff	1.889984
46	0x3f80705e	1.0034292
47	0x4057842a	3.3674417
48	0x3fc03a76	1.5017841
49	0x3fe8097b	1.8127893
50	0x3f87f253	1.0620826
51	0x3faa3e9d	1.3300358
52	0x3fa7442e	1.3067682
53	0x3faace58	1.3344221
54	0x3fab377f	1.3376311
55	0x3faf2527	1.3683213
56	0x3f6c83c7	0.92388576
57	0x3fe94cff	1.8226622
58	0x402831f9	2.62805
59	0x40059ac6	2.0875716
60	0x3ee642a3	0.44972715
61	0x3f4df311	0.80449015
62	0x3f58824c	0.8457382
63	0x3f3dccdb	0.7414071

encoder.encoder.6.weight f4 [128, 64, 3, 3]
0	0xbdcf26f7	-0.10114854
1	0xbe1fd194	-0.15607291
2	0xbe8bca97	-0.27303
3	0x3e2cc1bb	0.16870777
4	0x3c9e3408	0.01931192
5	0xbdb18580	-0.08668041
6	0x3d46ad55	0.048505146
7	0xbd179e83	-0.037016403
8	0x3cbb43d6	0.022859495
9	0x3d6cf5fc	0.057851776
10	0x3cc1dc0c	0.023664497
11	0xbc91574c	-0.017741822
12	0x3dd1f70a	0.10252197
13	0x3d5118a0	0.051048875
14	0xbdd4b987	-0.10386949
15	0x3db7c762	0.08973576
16	0xba125ab3	-0.0005582973
17	0xbd762dd8	-0.060102314
18	0xbd547d25	-0.05187716
19	0xbbd87d96	-0.006606768
20	0x3d6ed5c5	0.058309335
21	0xbaea93d1	-0.0017896836
22	0x3c2a2da5	0.010386859
23	0x3d7983f3	0.060916852
24	0x3cbd2301	0.02308798
25	0xbdb3ee08	-0.08785635
26	0xbd04c0b1	-0.032410327
27	0xbcf9e7cc	-0.030506037
28	0x3dfc8b97	0.12331312
29	0x3da02d58	0.07821149
30	0xbc1ab6ec	-0.009443026
31	0x3d8c0e6b	0.068386875
32	0x3d5b78f6	0.053582154
33	0xbd8ea2fa	-0.06964679
34	0xbca60c55	-0.020269552
35	0x3d415d00	0.047207832
36	0xbdca9135	-0.09890977
37	0xbd3bae8c	-0.045820758
38	0xbd36d187	-0.044633415
39	0x3ca3efc2	0.020011786
40	0xbd198a3f	-0.037485357
41	0x3bdc8d99	0.006730747
42	0xbda9c1ab	-0.08288892
43	0xbe19ccb4	-0.15019494
44	0xbcd54e44	-0.026038297
45	0xbcf0c4d6	-0.029390734
46	0x3d822aa4	0.06355789
47	0xbbf64c36	-0.0075164093
48	0xb8b611c7	-8.6817476e-05
49	0x3d63780e	0.055534415
50	0xbc981d22	-0.01856858
51	0x3d865cfa	0.065607026
52	0x3d0972aa	0.033556618
53	0xbd943975	-0.072375216
54	0x3cd883f8	0.026430115
55	0x3da0b78b	0.07847508
56	0xbde4d25b	-0.111729346
57	0xbd03f3b2	-0.032214828
58	0x3d3b0fe4	0.04566945
59	0xbba1cfbe	-0.004938095
60	0x3d8c2ecc	0.06844863
61	0xbcb5707a	-0.02214836
62	0xbc601d5e	-0.013678877
63	0x3e41513e	0.18878648
64	0xbdc44db4	-0.09585133
65	0x3df7d289	0.12100703
66	0xbd58ecc2	-0.052960165
67	0xbd668ede	-0.056288593
68	0x3dfd7484	0.12375739
69	0xbd9f717e	-0.07785319
70	0x3dbe84a9	0.09302647
71	0xbd90a792	-0.070632115
72	0x3cc4a7ad	0.024005735
73	0x3e3b4c17	0.18290745
74	0x3d6c3491	0.05766732
75	0xbe08944b	-0.1333782
76	0x3d00582b	0.031334084
77	0xbd88ac0a	-0.06673439
78	0xbd186775	-0.03720804
79	0xbbb8d6c5	-0.005640837
80	0x3b9f1490	0.004854746
81	0xbd3420b6	-0.043976508
82	0xbce969d7	-0.028492851
83	0xbae41b09	-0.0017403077
84	0xbcb0945e	-0.021555122
85	0x3c18d065	0.009327029
86	0x3d9ef869	0.07762224
87	0xbbf5c003	-0.007499696
88	0xbb3cd47a	-0.002881317
89	0x3ceca771	0.028888436
90	0x3e2c4e0d	0.16826649
91	0x3c463537	0.012097648
92	0x3d9ac49a	0.0755703
93	0xbdaa936e	-0.08328901
94	0xbdb6ad3e	-0.08919762
95	0xbe29405e	-0.1652846
96	0xbde3a8f3	-0.11116209
97	0xbca3a989	-0.019978302
98	0xbd5cf710	-0.053946555
99	0x3dceec1c	0.10103628
100	0xbe9af488	-0.30264688
101	0x3a83ca54	0.0010054805
102	0xbe5f4ff1	-0.21807839
103	0xbc8f6e55	-0.017508665
104	0x3e3c2d26	0.18376598
105	0x398de3c2	0.00027063309
106	0x3e80990b	0.25116763
107	0x3d881fe8	0.06646711
108	0xbc627e16	-0.013824007
109	0xbbc5f395	-0.006041
110	0xbd084a08	-0.033273727
111	0xbb046b2b	-0.0020205479
112	0xbd760191	-0.060060088
113	0xbbbdd0ce	-0.0057927137
114	0x3c64f684	0.0139747895
115	0x3d4adb19	0.049525354
116	0xbd2e995b	-0.04262672
117	0x3c2da76f	0.010599001
118	0xbc6c8387	-0.014435655
119	0xbd627dd5	-0.055295784
120	0xbd0451c3	-0.032304537
121	0xbd83d81f	-0.06437706
122	0x3c4f5560	0.012654632
123	0xbce0acb4	-0.027426101
124	0x3d7ed01d	0.06221019
125	0xbd0931fa	-0.033494927
126	0x3df419ff	0.11919021
127	0xbba142e8	-0.004921306
128	0x3c82be70	0.015959948
129	0xbce2f108	-0.027702823
130	0xbd5ec0c7	-0.054383066
131	0xbdc4f154	-0.09616342
132	0xbe617667	-0.22017823
133	0xbe0ae948	-0.13565552
134	0xbdb52307	-0.088445716
135	0xbcf22578	-0.029558882
136	0xbd2f8c93	-0.04285867
137	0xbd9ab3a7	-0.07553797
138	0x3d0ed780	0.034873486
139	0x3cc23676	0.02370761
140	0xbcb47c30	-0.022031873
141	0x3d0555b4	0.032552436
142	0xbbe92cca	-0.007115935
143	0x3d1c2560	0.03812158
144	0xbcd8c479	-0.026460873
145	0xbe21cd60	-0.15801
146	0x3e034ff1	0.12823464
147	0xbe2997ce	-0.16561815
148	0xbc8f09f7	-0.017460806
149	0x3dc102ca	0.0942436
150	0xbc8259f2	-0.01591203
151	0x3e1df0a2	0.15423825
152	0x3ca91826	0.020641398
153	0xbc4f495c	-0.012651768
154	0xbd9c16e1	-0.07621551
155	0xbcbbe0d6	-0.022934359
156	0xbd41d86f	-0.047325548
157	0x3ccd3468	0.025049403
158	0xbd8c04da	-0.06836863
159	0x3dc9ad90	0.098475575
160	0x3dea1882	0.11430456
161	0xbcda82c5	-0.026673684
162	0xbd1534ac	-0.036427185
163	0xbb73c15c	-0.0037194109
164	0x3cdbbd08	0.026823536
165	0xbda5616c	-0.080752224
166	0x3a28af22	0.0006434788
167	0xbd300ed6	-0.0429829
168	0x3cae59a5	0.02128298
169	0x3db376ea	0.087629154
170	0x3d1f5438	0.038898677
171	0x3d4d6d76	0.05015322
172	0x3d2716d1	0.040793244
173	0xbd742977	-0.059609856
174	0x3d10676a	0.035254873
175	0x3d451211	0.048112933
176	0x3d757e76	0.059935056
177	0xbdf8830a	-0.12134369
178	0xbd7e9067	-0.06214943
179	0xbd0bb773	-0.034110498
180	0xbaabf050	-0.0013117883
181	0x3e452bfa	0.19255057
182	0x3e1a35be	0.15059564
183	0x3cbae9a0	0.02281648
184	0x3e40382e	0.18771431
185	0x3dafa83a	0.085770085
186	0x3cbc3fa5	0.022979567
187	0xbcccaeb5	-0.02498565
188	0xbd05c23b	-0.032655936
189	0x3dd66065	0.104676045
190	0xbcfaeded	-0.03063103
191	0x3b1da1f8	0.002405284
192	0x3c387dfa	0.011260504
193	0xbd8f8931	-0.07008589
194	0x3caa1bc4	0.020765193
195	0xbdaaff4b	-0.083494745
196	0x3d5e2611	0.05423552
197	0xbd0cda8a	-0.034388103
198	0xbd9a4c0f	-0.07534038
199	0xbe08004d	-0.13281365
200	0xbdb458e8	-0.0880602
201	0xbcb6faa5	-0.022336314
202	0xbb0f3470	-0.0021851324
203	0xba69daa1	-0.0008920823
204	0x3d9a7ce4	0.07543352
205	0x3d5dfa1a	0.054193594
206	0x3c9b3f65	0.018951127
207	0x3bd6de70	0.0065572783
208	0x3c98b732	0.018642042
209	0x3d6b6418	0.057468504
210	0xbdd2da80	-0.10295582
211	0xbc27d1be	-0.0102428775
212	0x3d934926	0.07191686
213	0xbe06e46f	-0.13173078
214	0xbdc6d6a0	-0.09708905
215	0x3d60344a	0.054737367
216	0xbd38c7f7	-0.045112576
217	0x3d05f8a2	0.032707818
218	0x3b8225aa	0.003971775
219	0xbcbc8cdd	-0.023016388
220	0xbc8e4b4b	-0.017369887
221	0xbd817a2e	-0.06322132
222	0x3d120bf7	0.03565594
223	0xbad0b51a	-0.0015923113
224	0xbda8d1d0	-0.082431436
225	0xbe39ec5d	-0.18156572
226	0xbd2ffb2c	-0.042964146
227	0xbd54172e	-0.05177992
228	0xbb56fca0	-0.0032804385
229	0x3d8633b7	0.065528326
230	0x3d655b6b	0.055995386
231	0xbd9530b8	-0.07284683
232	0x3d8c5ca3	0.068536066
233	0x3cf331c8	0.029686823
234	0x3e4e3655	0.20137914
235	0x3e1716e7	0.1475483
236	0x3d38fe7d	0.045164574
237	0x3d7d8fef	0.061904844
238	0xbe3913ce	-0.18073961
239	0xbd598096	-0.053101145
240	0xbe1e90af	-0.1548488
241	0xbe585b5e	-0.21128604
242	0xbdca5ed3	-0.098813675
243	0x3c9e93c5	0.019357571
244	0x3d4ab9b3	0.049493503
245	0x3db987bd	0.09059093
246	0x3d262bf4	0.04056926
247	0xbddbda51	-0.10735
248	0x3cdc778a	0.02691247
249	0xbe0d23f2	-0.13783243
250	0xbe17f7df	-0.14840649
251	0xbc8238a1	-0.015896143
252	0x3d29cb7a	0.041453816
253	0x3d8af3af	0.0678476
254	0x3df31fe4	0.11871317
255	0xbdbbcccb	-0.091699205

encoder.encoder.6.bias f4 [128]
0	0x3ce52a05	0.027974138
1	0x3b3aa9d8	0.0028482582
2	0x3ca978ee	0.020687547
3	0xbd15fea5	-0.0366198
4	0x3cce3731	0.025172802
5	0x3d0434f6	0.03227707
6	0xbd267557	-0.040639248
7	0x3cb31934	0.021862604
8	0x3d4eb314	0.05046375
9	0xba1ead08	-0.00060530053
10	0x3c6093a9	0.01370708
11	0x3ce35fe1	0.02775568
12	0xbd0075bd	-0.031362284
13	0xbcafa81a	-0.021442462
14	0x3cc06ec8	0.023490325
15	0x39b285bd	0.00034050448
16	0xbd1c9478	-0.03822753
17	0x3bac140a	0.0052514123
18	0x3d11ae7d	0.035566796
19	0xbcbda6d3	-0.023150837
20	0xbc4c88c6	-0.012483781
21	0x3c600eb7	0.013675383
22	0xb9a619c2	-0.00031681178
23	0x3cfffa66	0.031247329
24	0x3a04b51d	0.00050623884
25	0x3ce7e7a5	0.028308699
26	0x3d0e5bfe	0.0347557
27	0xbd152206	-0.0364094
28	0xbbbe7920	-0.005812779
29	0xbbd0c299	-0.006370854
30	0xbca5cce1	-0.020239295
31	0xbb93026f	-0.004486374
32	0x3cae10cc	0.021248244
33	0xbd136762	-0.035987265
34	0x3cdaf4f9	0.02672814
35	0xbd3cf584	-0.04613258
36	0x3bfc09ce	0.0076915985
37	0xbcf404c2	-0.029787425
38	0x3d538b24	0.051646367
39	0x3be67a4d	0.0070336224
40	0xbce6fc15	-0.028196374
41	0xbc0fa90c	-0.008768331
42	0x3c5a90ae	0.013340158
43	0xbcc00b39	-0.023442851
44	0xbb578d22	-0.0032890518
45	0xbc43415a	-0.0119174365
46	0xbc1643c3	-0.009171429
47	0x3cfa9162	0.030586902
48	0x3c30720a	0.0107693765
49	0x3ba641dc	0.005073769
50	0x3cd2a381	0.02571273
51	0xbab3ac95	-0.001370805
52	0xbc0321ca	-0.008003661
53	0x3cef0c0b	0.029180547
54	0xbc2ae63f	-0.0104308715
55	0x3c711f45	0.014716928
56	0x3b5b09fd	0.0033422702
57	0xbcf4b86b	-0.029873094
58	0xbca1590a	-0.019695777
59	0x3ce43761	0.027858438
60	0x3b96d199	0.0046026227
61	0xbd2dd0a3	-0.0424353
62	0xbcf55615	-0.029948274
63	0x3d1b4610	0.037908614
64	0xbc605659	-0.013692462
65	0xbd2b43e6	-0.0418128
66	0xbc94beaa	-0.018157322
67	0xbc93332e	-0.01796874
68	0xbd1462b2	-0.036226936
69	0x3b020b8c	0.0019843308
70	0x3d2e2aa8	0.04252115
71	0x3b46d8fd	0.0030341737
72	0xbca900dc	-0.020630293
73	0x3c92fe1d	0.017943436
74	0xbca13dc4	-0.019682772
75	0x3c877258	0.016534016
76	0x3cb061b6	0.021530967
77	0x3c8feb93	0.017568385
78	0x3c6920a1	0.014228971
79	0x3cb0a0bb	0.021561017
80	0xbd05c474	-0.032658055
81	0x3cc6c7a5	0.02426512
82	0xbc4d2374	-0.01252066
83	0x3ca166c5	0.019702325
84	0x3c78555f	0.015157073
85	0xbcbff8a9	-0.023434
86	0xbd087877	-0.03331801
87	0x3c6dd8ab	0.01451699
88	0x3cc156a2	0.02360088
89	0xbc72f19f	-0.014828115
90	0x3c93fdc0	0.018065333
91	0xbceab7b8	-0.028652057
92	0xbcd16a53	-0.025563395
93	0x3cac09e7	0.021000816
94	0x3d37cc6e	0.044872694
95	0x3c6d6c11	0.014491097
96	0xbc6a86b5	-0.014314343
97	0xbb2d06d6	-0.002640178
98	0x3d32153e	0.04347729
99	0x3c17cfb8	0.009265833
100	0xbd11a749	-0.035559926
101	0x3c534d6a	0.012896875
102	0x3d10dcc6	0.035366796
103	0x3ba21a68	0.0049469955
104	0x3b9bdc49	0.0047564846
105	0xbcbd9cf3	-0.023146128
106	0x3bd02883	0.0063524856
107	0xbce9b71f	-0.028529702
108	0x3c86a41c	0.016435675
109	0xbd2b2e75	-0.04179235
110	0x3d3d06de	0.046149127
111	0x3c0c204e	0.008552624
112	0xbb224d95	-0.002476548
113	0x3cb70466	0.022340965
114	0xbcd6b49b	-0.026209166
115	0xbd5c9713	-0.053855013
116	0x3cd8fe20	0.026488364
117	0x3c4c954c	0.012486767
118	0x3c8b3e13	0.016997373
119	0xbd0208c1	-0.03174663
120	0x3c9b3d97	0.018950267
121	0x3cc67e71	0.024230214
122	0x3cce3b0b	0.025174638
123	0xbc435e05	-0.0119242715
124	0xbc1ca203	-0.009560111
125	0x3ca9904d	0.02069869
126	0x3c3f6c27	0.0116835
127	0x3d2c0f5e	0.042006843

encoder.encoder.7.weight f4 [128]
0	0x3f7e03e5	0.9922469
1	0x3f7cbed5	0.98728687
2	0x3f76a0c3	0.9633905
3	0x3f80c1f8	1.0059195
4	0x3f89460f	1.0724505
5	0x3f8151f1	1.0103132
6	0x3f6c36b5	0.92270976
7	0x3f845a9f	1.0340155
8	0x3f784460	0.9697933
9	0x3f7a078a	0.97667754
10	0x3f5b6a46	0.85709035
11	0x3f61c6ea	0.88194144
12	0x3f843ec4	1.0331655
13	0x3f8149f5	1.0100695
14	0x3f798338	0.9746585
15	0x3f71f829	0.9451929
16	0x3f8494c0	1.0357895
17	0x3f667a84	0.90030694
18	0x3f7ee536	0.995685
19	0x3f7fc13e	0.9990424
20	0x3f81a6b6	1.0129001
21	0x3f877f3f	1.0585707
22	0x3f745923	0.9544851
23	0x3f8049ee	1.0022562
24	0x3f7c03fc	0.9844358
25	0x3f780806	0.9688724
26	0x3f7d38d6	0.9891485
27	0x3f6bfe6b	0.92185086
28	0x3f78106a	0.96900046
29	0x3f67482e	0.9034451
30	0x3f8f4e9d	1.1195866
31	0x3f802803	1.0012211
32	0x3fa331a8	1.2749529
33	0x3f768acc	0.9630554
34	0x3f723470	0.94611263
35	0x3f7301a6	0.9492439
36	0x3f75c5e3	0.96005076
37	0x3f71eb1e	0.94499385
38	0x3f6e06a6	0.92978895
39	0x3f704455	0.93854266
40	0x3f7c99f7	0.9867243
41	0x3f7a304b	0.9772994
42	0x3f85c0ed	1.0449501
43	0x3f6dd933	0.92909545
44	0x3f5ed26d	0.87039834
45	0x3f7e0d16	0.9923872
46	0x3f7be88d	0.9840172
47	0x3f812805	1.0090338
48	0x3f6e4442	0.93072903
49	0x3f771da0	0.9652958
50	0x3f886983	1.06572
51	0x3f7662b6	0.9624437
52	0x3f7fce2a	0.99923956
53	0x3f6352b3	0.88798064
54	0x3f861b87	1.0477151
55	0x3f6739c5	0.90322524
56	0x3f8b8585	1.0900122
57	0x3f8203b9	1.0157386
58	0x3f6f1e0e	0.93405235
59	0x3f6ff680	0.93735504
60	0x3f63f050	0.8903856
61	0x3f85d864	1.0456662
62	0x3f85c485	1.0450598
63	0x3f74448a	0.9541708
64	0x3f7da943	0.990864
65	0x3f803435	1.0015932
66	0x3f7191dc	0.9436319
67	0x3f5f642f	0.87262243
68	0x3f7473a5	0.9548896
69	0x3f35760f	0.7088327
70	0x3f617d9d	0.88082296
71	0x3f8ac973	1.0842727
72	0x3f61f194	0.88259244
73	0x3f7a7f53	0.9785053
74	0x3f81ab76	1.0130451
75	0x3f820c58	1.0160017
76	0x3f776cd5	0.9665044
77	0x3f6f90f9	0.93580586
78	0x3f81f8e4	1.015408
79	0x3f7e7493	0.9939663
80	0x3f6e95b1	0.9319716
81	0x3f671551	0.902669
82	0x3f7dbe54	0.9911854
83	0x3f7c4a2d	0.98550683
84	0x3f6a1748	0.91441774
85	0x3f72858e	0.9473504
86	0x3f7c06bc	0.98447776
87	0x3f87ca6b	1.0608648
88	0x3f728334	0.9473145
89	0x3f874846	1.0568931
90	0x3f7983f3	0.97466964
91	0x3f75efde	0.96069133
92	0x3f6cb4bb	0.9246327
93	0x3f84d229	1.0376636
94	0x3f7ffa36	0.99991167
95	0x3f7f492e	0.9972104
96	0x3f5c912b	0.8615901
97	0x3f8066e9	1.0031406
98	0x3f78de19	0.97213894
99	0x3f803288	1.0015421
100	0x3f6278ba	0.88465464
101	0x3f7833b5	0.969539
102	0x3f7a3c44	0.9774821
103	0x3f6e3835	0.93054515
104	0x3f746b8b	0.954766
105	0x3f802afd	1.0013119
106	0x3f97900a	1.1840832
107	0x3f82b6b3	1.0212005
108	0x3f7f5737	0.99742454
109	0x3f7afafa	0.9803921
110	0x3f809245	1.0044638
111	0x3f8117d5	1.0085398
112	0x3f71348e	0.9422082
113	0x3f811841	1.0085527
114	0x3f6e30f4	0.93043447
115	0x3f823e3d	1.0175244
116	0x3f7ffc58	0.9999442
117	0x3f6d2f46	0.9265026
118	0x3f7aff55	0.98045856
119	0x3f74cf0e	0.9562844
120	0x3f801ef3	1.0009445
121	0x3f64da34	0.8939545
122	0x3f82ca45	1.0217978
123	0x3f86adf2	1.0521834
124	0x3f7b4f58	0.98167944
125	0x3fb30fba	1.3989174
126	0x3f84e896	1.038348
127	0x3f673406	0.90313756

encoder.encoder.7.bias f4 [128]
0	0xbdcbc362	-0.09949376
1	0xbe2b3800	-0.16720581
2	0xbd367030	-0.044540584
3	0xbda43c1a	-0.08019276
4	0xbcfe5eac	-0.031051002
5	0xbe33aa18	-0.17545354
6	0xbe93a5ca	-0.28837425
7	0xbe598788	-0.21243107
8	0xbe6399c0	-0.2222662
9	0xbca354b2	-0.019937847
10	0x3c13c7c6	0.009019798
11	0x3d358bde	0.04432284
12	0xbe0c34cc	-0.13692015
13	0xbcfe91c5	-0.031075368
14	0xbe0e7e1e	-0.13915297
15	0xbdcf527e	-0.10123156
16	0xbdbb2061	-0.09137035
17	0xbbc030c9	-0.0058651906
18	0xbdb89a28	-0.09013778
19	0xbc8dad50	-0.017294556
20	0xbe0cb47f	-0.13740729
21	0xbd1f8bd8	-0.038951725
22	0xbe71a945	-0.23599727
23	0xbdc801d7	-0.09765976
24	0xbc8ca383	-0.017167812
25	0xbe0c3c4e	-0.1369488
26	0xbe6d155f	-0.23152684
27	0xbd84d9e2	-0.0648687
28	0xbbc0de0a	-0.005885844
29	0xbe168182	-0.14697841
30	0x3bf63c4d	0.0075145126
31	0xbec799ae	-0.38984436
32	0xbed86c6b	-0.42270216
33	0xbde75156	-0.112948105
34	0xbd82addb	-0.063808165
35	0xbe13e3d0	-0.14442372
36	0xbe7ff056	-0.24994025
37	0xbd92d165	-0.07168845
38	0xbe843063	-0.25818166
39	0xbe433b32	-0.1906555
40	0xbe81d0c8	-0.253546
41	0xbc6ef59c	-0.014584925
42	0xbeb1cfb4	-0.34728777
43	0xbd074793	-0.033027243
44	0x3c96d49b	0.018411925
45	0xbdf27ac1	-0.1183982
46	0xbeb6865f	-0.35649392
47	0xbdc93d34	-0.09826127
48	0xbdf2a546	-0.1184793
49	0x3d77d3fa	0.06050489
50	0xbe75d68e	-0.24007627
51	0xbe290cbe	-0.16508767
52	0xbe6698f5	-0.22519286
53	0x3d818e90	0.0632602
54	0xbe247274	-0.16059285
55	0xbe0f6fce	-0.14007494
56	0xbe194e9d	-0.14971395
57	0xbea18af6	-0.3155133
58	0xbd9224be	-0.07135914
59	0xbe6aa529	-0.22914566
60	0xbb79bc6c	-0.0038106693
61	0xbefd3592	-0.49454933
62	0x3cd9f10d	0.0266042
63	0xbe32e661	-0.17470695
64	0xbe4b7eaa	-0.19872537
65	0xbe024d54	-0.12724811
66	0xbd01a297	-0.0316492
67	0xbe17199a	-0.1475586
68	0xbe1e06f8	-0.15432346
69	0x3db2dc09	0.087333746
70	0xbdd6e9b8	-0.10493797
71	0xbd9ba49e	-0.075997576
72	0xbd934a68	-0.07191926
73	0xbda965ce	-0.08271371
74	0xbe5908a5	-0.21194704
75	0xbe463bc3	-0.19358735
76	0xbe10328e	-0.14081785
77	0xbd64b62f	-0.055837806
78	0xbdea6f3a	-0.11446996
79	0xbd5395f0	-0.051656663
80	0xbe15ac9b	-0.14616625
81	0xbe112727	-0.14175092
82	0xbe26ce05	-0.16289528
83	0xbe8ba95f	-0.27277657
84	0x3ca6c301	0.020356657
85	0xbb488d86	-0.0030601933
86	0xbe2e6fb5	-0.170348
87	0xbd7ddebe	-0.06198
88	0xbda51843	-0.08061268
89	0xbea4d128	-0.32190824
90	0xbce43307	-0.027856363
91	0xbe2123b5	-0.15736277
92	0xbe03ba51	-0.12864043
93	0xbe3aa8e1	-0.18228485
94	0xbeb26252	-0.34840637
95	0xbe5e9edc	-0.21740288
96	0x3a8534c4	0.001016282
97	0xbdfe861b	-0.12427922
98	0xbe954dee	-0.29161018
99	0xbdc1e653	-0.09467759
100	0xbd68fe70	-0.056883276
101	0xbd614bb9	-0.055003855
102	0xbe9faf88	-0.31188607
103	0xbea89303	-0.3292466
104	0xbe020d9a	-0.12700501
105	0xbd651805	-0.05593111
106	0xbe5098c2	-0.20370772
107	0xbe644d4f	-0.22295116
108	0xbf178b15	-0.591966
109	0xbe02e944	-0.12784296
110	0xbd7ccd3b	-0.06171916
111	0xbe5a7d80	-0.21336937
112	0xbf27ddf9	-0.6557308
113	0xbe497c46	-0.19676313
114	0xbe21417b	-0.15747635
115	0xbe0a15ef	-0.1348493
116	0xbe2a63e8	-0.16639674
117	0xbd84b71c	-0.06480238
118	0xbed4dd2b	-0.41574988
119	0xbd440e62	-0.04786528
120	0xbec54c95	-0.3853499
121	0xbe02ce1f	-0.12773941
122	0xbec668c2	-0.387518
123	0xbe09f6dd	-0.13473077
124	0xbd30782b	-0.04308335
125	0xbd555821	-0.052086
126	0xbe22054f	-0.15822338
127	0x3ccce362	0.025010768

encoder.encoder.7.running_mean f4 [128]
0	0xbf775f60	-0.96629906
1	0xc0374e27	-2.864145
2	0xc059a510	-3.4006996
3	0xbf57b6ef	-0.8426351
4	0xbfd26022	-1.6435587
5	0xc0106e87	-2.256746
6	0x3ea25242	0.31703383
7	0xbfaeda37	-1.3660344
8	0xbf86370f	-1.0485553
9	0x3e465c27	0.19371091
10	0xbfefffce	-1.874994
11	0xbe42db7c	-0.19029039
12	0xbf5fb855	-0.87390643
13	0xc02d8607	-2.7113054
14	0x3f7b3c1c	0.98138595
15	0xbed8d443	-0.42349443
16	0x3f97ec5c	1.1869006
17	0xbf2f9996	-0.6859373
18	0xbee2f2f0	-0.44325972
19	0xbf11f97e	-0.5702132
20	0x3ea14aff	0.3150253
21	0xbef57168	-0.47938085
22	0xbf825362	-1.0181696
23	0xbf9e4a0e	-1.236635
24	0xc03f8a1b	-2.9928043
25	0xbea6068e	-0.32426876
26	0xbfd93237	-1.6968449
27	0x3eeabe6d	0.45848408
28	0xbf8cd971	-1.1003858
29	0xbf01cb3e	-0.5070075
30	0xbf224552	-0.63387024
31	0xbfc687ab	-1.5510153
32	0x3eaf198c	0.34199178
33	0xbf287a3e	-0.65811527
34	0xc001dee4	-2.0292292
35	0xc03e52d5	-2.9738057
36	0xbf9f7774	-1.2458329
37	0xbf02939d	-0.5100649
38	0x40566dfe	3.3504634
39	0xbf8b3e2a	-1.0878346
40	0xbfff9d2c	-1.996984
41	0xc0749410	-3.821537
42	0xbf94216c	-1.15727
43	0xbfe621ee	-1.7979105
44	0xbffa1af2	-1.9539473
45	0xbed64201	-0.41847232
46	0xbf9cf48d	-1.2262131
47	0xbed03aaf	-0.40669772
48	0xbefda090	-0.49536562
49	0xbfd699f2	-1.676573
50	0xbf517b36	-0.8182863
51	0xbf9723e1	-1.1807824
52	0xbfa49449	-1.2857753
53	0xbf572996	-0.8404783
54	0xbf8e2678	-1.110549
55	0xbf6f4a14	-0.9347241
56	0xbf27a3b8	-0.6548419
57	0x3f78656c	0.9702976
58	0xbf3c678a	-0.7359549
59	0xbdea6af3	-0.1144618
60	0x3f23ac06	0.6393436
61	0xbf3b4f6e	-0.73168075
62	0xbe6c10c3	-0.23053269
63	0xbf8fba62	-1.1228755
64	0xbfb46923	-1.4094585
65	0x3e87e372	0.26540715
66	0xbe88d9e1	-0.26728728
67	0x3ea82d81	0.32847217
68	0x3ea08417	0.31350777
69	0x3f298fa5	0.6623481
70	0xbeb4fe3f	-0.35350224
71	0xbeab99c1	-0.33515742
72	0xbf1054e3	-0.56379527
73	0x3f432959	0.76234967
74	0xbe389b42	-0.18027976
75	0xbec25d9f	-0.37962052
76	0xbdbac7b1	-0.09120119
77	0x3ec90cc4	0.39267552
78	0xbd44a874	-0.048012212
79	0xbfd85731	-1.6901609
80	0x3e34d255	0.1765836
81	0xbf9bb7e7	-1.2165498
82	0xbdd94eba	-0.10610719
83	0xbebb4c86	-0.3658182
84	0xbf55afa8	-0.83471155
85	0xbef363eb	-0.4753717
86	0x3f91e397	1.139758
87	0xbf4b3b7b	-0.79387635
88	0xbfefaba9	-1.8724262
89	0xbf986db3	-1.1908478
90	0xbf945ffb	-1.1591791
91	0xc0234592	-2.5511212
92	0xc0314bfd	-2.770263
93	0xc071bcb3	-3.7771423
94	0xbfe4690a	-1.7844555
95	0xbe2f71c4	-0.17133242
96	0xbf07613d	-0.5288275
97	0xbf1704f0	-0.5899191
98	0x3ef2b8de	0.47406667
99	0xbf5b37e9	-0.8563219
100	0xc009143f	-2.1418607
101	0xbebf3e0b	-0.37352023
102	0xbd1ba125	-0.037995476
103	0x3f80f7ee	1.0075662
104	0x40204738	2.5043468
105	0xbe626a20	-0.22110796
106	0xbfb69a22	-1.4265788
107	0xbf4eb5f9	-0.8074642
108	0xbf80a357	-1.0049847
109	0xc009de99	-2.1542113
110	0xbf06e114	-0.5268719
111	0xc003c6bf	-2.0590055
112	0xc0030cbb	-2.047652
113	0xbc51deda	-0.01280948
114	0xc0044cce	-2.0671878
115	0x3f1cabdf	0.61199754
116	0xbda4881b	-0.080337726
117	0x3ec83ace	0.39107364
118	0xbfaeef57	-1.3666791
119	0x3fa6c3bc	1.3028483
120	0xbf8f9ce8	-1.1219759
121	0xbf660acf	-0.8986024
122	0xbf950f66	-1.1645324
123	0xbf9e808e	-1.2382982
124	0xc00a3da0	-2.1600113
125	0x3f1025a4	0.56307435
126	0xbf856f07	-1.0424508
127	0x3d9dc63d	0.077038266

encoder.encoder.7.running_var f4 [128]
0	0x3f7f700e	0.99780357
1	0x3fd1575d	1.6354786
2	0x40299af4	2.6500826
3	0x400085c7	2.0081651
4	0x404279c4	3.038682
5	0x401bf088	2.4365559
6	0x3f245437	0.64191
7	0x3ff811df	1.9380454
8	0x3fb506f9	1.4142753
9	0x3fa34e75	1.2758318
10	0x3fc9a7fe	1.5754392
11	0x400313b9	2.0480788
12	0x3f7b4954	0.98158765
13	0x40212bd5	2.5183003
14	0x3fdc0811	1.7189962
15	0x403a7e78	2.913969
16	0x3fbb7d04	1.4647527
17	0x3fdb75f4	1.7145371
18	0x3f6cdd4a	0.9252516
19	0x400df1d5	2.2178853
20	0x402ccb1a	2.6998963
21	0x3fe50d1d	1.7894627
22	0x3f870e8b	1.0551313
23	0x40c3a342	6.113679
24	0x40432663	3.049218
25	0x3fe9eb36	1.8274906
26	0x3fbffbc3	1.4998707
27	0x401e9920	2.478096
28	0x40223abf	2.5348356
29	0x3ff2b15e	1.8960378
30	0x402dfba7	2.7184846
31	0x3f70f216	0.94119394
32	0x400b56af	2.1771657
33	0x3f9eb8d4	1.2400155
34	0x4012a09a	2.2910523
35	0x4025616a	2.5840707
36	0x3fe48cdd	1.7855488
37	0x401af70c	2.4213285
38	0x3f5d22ff	0.86381525
39	0x401a2a9c	2.4088507
40	0x3faa6da5	1.3314711
41	0x3f74087c	0.95325446
42	0x4017770f	2.3666418
43	0x40536a4b	3.3033626
44	0x3fff8e96	1.9965389
45	0x3fd11dcc	1.6337218
46	0x3f7ae684	0.9800799
47	0x3fd74932	1.6819212
48	0x3fd0d906	1.631623
49	0x4030f2e0	2.764824
50	0x40177288	2.3663654
51	0x40043543	2.0657508
52	0x3fa205bb	1.2657999
53	0x3fa922af	1.321371
54	0x3fa0a898	1.2551451
55	0x3fbe9507	1.488923
56	0x3f64cedd	0.8937815
57	0x3fa59ed7	1.2939099
58	0x3f9a6065	1.2060667
59	0x3f95e030	1.1709042
60	0x4068e42a	3.638926
61	0x3f2c2a06	0.6725162
62	0x3f7b1725	0.9808219
63	0x3ff8b8ef	1.9431437
64	0x3fcf8f04	1.621552
65	0x40073666	2.1126952
66	0x40b82d1d	5.755507
67	0x3ff50650	1.9142551
68	0x4021cce1	2.5281298
69	0x407a9c4b	3.9157894
70	0x3facf374	1.3511796
71	0x4014f399	2.327368
72	0x402be571	2.685879
73	0x3f9a88d6	1.2073009
74	0x40100c2a	2.2507424
75	0x3fbee76d	1.4914376
76	0x3f9b6984	1.2141576
77	0x40185010	2.3798866
78	0x3fad2d6f	1.352949
79	0x400b3ede	2.175712
80	0x3f8a4c50	1.0804539
81	0x3fcd1a48	1.6023645
82	0x3f8041b4	1.0020051
83	0x40100b0d	2.2506745
84	0x40c0ff2e	6.03115
85	0x4011186a	2.267115
86	0x3fdabd0c	1.7088943
87	0x40759584	3.8372507
88	0x3fa12241	1.2588578
89	0x3fb6e04c	1.42872
90	0x3fcdb15d	1.6069752
91	0x3fc8c6d8	1.5685682
92	0x3fa13a51	1.2595922
93	0x3f90a387	1.1299905
94	0x3feb14e6	1.8365753
95	0x3f8f222f	1.1182307
96	0x40e8034a	7.2504015
97	0x3f94d4c3	1.162743
98	0x3ff60e42	1.9223101
99	0x3fc6348a	1.5484784
100	0x3fbaeb0e	1.4602983
101	0x3fdb2fab	1.7123922
102	0x3fadacc9	1.3568355
103	0x3f8674c4	1.0504384
104	0x3fb274ad	1.3941857
105	0x3fe17136	1.7612674
106	0x406147e0	3.520012
107	0x3fe3aa03	1.7786258
108	0x3f463fd0	0.7744112
109	0x4019901a	2.3994203
110	0x401029af	2.2525442
111	0x40133e03	2.30066
112	0x3f54b371	0.83086306
113	0x3ff58b71	1.9183179
114	0x3f9f869d	1.2462956
115	0x3f722759	0.9459129
116	0x3f924c53	1.1429542
117	0x40a0ccee	5.025016
118	0x3f16d439	0.58917576
119	0x40158a76	2.336576
120	0x3f99153e	1.1959608
121	0x40303ed8	2.7538357
122	0x3f6f2bb4	0.9342606
123	0x3fa493b3	1.2857574
124	0x3fb35538	1.4010382
125	0x405006eb	3.2504222
126	0x3f95665c	1.1671863
127	0x400abbda	2.1677155
